src/best_posture_estimator_model.pth (torch, 267537 bytes, 18 tensors)

net.0.weight f4 [128, 99]
0	0xbd4da00c	-0.05020146
1	0xbd0097b3	-0.03139467
2	0x3c186e10	0.009303585
3	0x3d97991e	0.07402252
4	0x3d91ba19	0.071155734
5	0xbbcb107f	-0.006197035
6	0xbb7f2d45	-0.0038936895
7	0xbd28bf00	-0.041197777
8	0x3dbdc11e	0.0926535
9	0xbdc418c8	-0.09575039
10	0x3c346a86	0.011011725
11	0x3cdb2758	0.026752159
12	0x3d33b8af	0.0438773
13	0xbd272c2b	-0.040813606
14	0xbd14051d	-0.03613769
15	0x3db72ba8	0.08943874
16	0x3ce2092d	0.027592266
17	0xbd983e63	-0.07433774
18	0xbd8af942	-0.067858234
19	0xbdc2d36d	-0.095129825
20	0x3d294559	0.0413259
21	0x3d848111	0.0646993
22	0x3da411cf	0.08011209
23	0x3c2734c6	0.010205453
24	0x3d56c305	0.05243208
25	0x3cb5f844	0.022213109
26	0x3db64888	0.08900553
27	0xbd2d013a	-0.042237498
28	0xbdc149b2	-0.094378844
29	0xbca2b44c	-0.019861363
30	0xbd676956	-0.05649694
31	0x3d99aa74	0.075032145
32	0xbdabaa26	-0.083820626
33	0xbdc5f571	-0.09665955
34	0xbd037c6c	-0.03210108
35	0x3d0b19d8	0.033960193
36	0x3dc7190a	0.09721573
37	0x3befc533	0.007317209
38	0xbdca56e6	-0.09879856
39	0xbda83ffe	-0.082153305
40	0xbcd28aa4	-0.025700875
41	0x3dbdbb0a	0.092641905
42	0xbcf1b82d	-0.029506767
43	0x3d6f01ef	0.058351453
44	0xbd630b7b	-0.05543087
45	0x3da0118f	0.07815849
46	0x3dc46fc4	0.0959163
47	0xbc548d79	-0.012973183
48	0xbc0f05f1	-0.008729444
49	0x3c68c267	0.014206505
50	0x3b86792b	0.0041038
51	0x3d8404ef	0.064462535
52	0xbd651654	-0.055929497
53	0xba968793	-0.0011484496
54	0xbd6640e9	-0.056214247
55	0x3db9daaa	0.0907491
56	0xbd93346b	-0.07187732
57	0x3b954dcd	0.0045563937
58	0xbd9e7319	-0.07736797
59	0x3d2b5cde	0.041836612
60	0xbdb2373d	-0.08701942
61	0x3b9ade0a	0.004726176
62	0x3d38e768	0.04514256
63	0x3d24329d	0.04008733
64	0x3da2d14f	0.07950079
65	0xbd18edf1	-0.037336294
66	0xbd0655f8	-0.03279683
67	0x3d3b160f	0.045675334
68	0x3d06cc3c	0.032909617
69	0x3d705032	0.05867023
70	0xbbb7b526	-0.0056063114
71	0xbd11c0c1	-0.035584215
72	0xbdc0f9ec	-0.09422669
73	0x3d97107a	0.073761895
74	0xbdbcf26c	-0.09225926
75	0x3d0d834a	0.034549035
76	0x3db9ba9e	0.090687975
77	0x3d8bca29	0.06825668
78	0xbd12bec7	-0.03582647
79	0xbdaed991	-0.08537591
80	0x3d7c823f	0.06164765
81	0xbacda9ef	-0.0015690903
82	0xbd082361	-0.033236865
83	0x3dcc9194	0.09988704
84	0x3da901ef	0.08252322
85	0x3c6a37d3	0.014295536
86	0xbc366c8d	-0.011134279
87	0xbdb177ff	-0.086654656
88	0xbc353c39	-0.0110617215
89	0xbdbe55cd	-0.09293709
90	0xbc63d43a	-0.013905579
91	0xbd2537b5	-0.04033633
92	0x3d5cbfb4	0.05389376
93	0xbd0a8b18	-0.033824056
94	0x3dac0472	0.083992854
95	0x3d9c02f5	0.076177515
96	0x3d0af962	0.033929236
97	0xbcd3e291	-0.025864871
98	0xbda4c15f	-0.08044695
99	0xbd8e409f	-0.06945919
100	0xbdc35219	-0.09537143
101	0xbceb323b	-0.028710475
102	0x3d5752ad	0.05256908
103	0xbdc1d5c4	-0.09464601
104	0xbd9f71ef	-0.07785403
105	0x3d3e3eb6	0.046446525
106	0xbc860ed6	-0.016364496
107	0x3da86b8c	0.08223638
108	0xbd40e3ee	-0.04709237
109	0x3cf6ed5c	0.030142479
110	0x3d219cae	0.039456062
111	0xbd069ee2	-0.032866366
112	0xbd18288d	-0.037148047
113	0xbd1d8fe2	-0.038467295
114	0xbc7aa703	-0.015298608
115	0x3dbe935f	0.093054526
116	0xbdc6e20d	-0.097110845
117	0xbd4bb445	-0.049732465
118	0xbcb7377e	-0.022365328
119	0x3c8a1f94	0.01686076
120	0x3ca8f70e	0.020625617
121	0xbcd68eff	-0.026191233
122	0x3d41c0f3	0.04730315
123	0xbd91cf34	-0.07119599
124	0x3dbfbe99	0.093625255
125	0xbd37f183	-0.044908058
126	0xbda6fa91	-0.081532605
127	0xbc8a768a	-0.016902227
128	0x3da0614f	0.0783106
129	0x3d84e79b	0.06489488
130	0xbc57b4ab	-0.013165633
131	0xbdb360dc	-0.08758709
132	0x3d83464d	0.06409893
133	0xbd5f8536	-0.0545704
134	0x3d7c120c	0.06154065
135	0xbcd67bed	-0.02618214
136	0x3cc8b8b7	0.024502141
137	0x3cc242ed	0.023713553
138	0x3c2521e9	0.010078886
139	0x3d95b307	0.073095374
140	0xbd9b16ae	-0.07572685
141	0xbd30a208	-0.043123275
142	0x3c100a25	0.008791481
143	0xbcfecdd7	-0.031104011
144	0xbc48defc	-0.012260195
145	0xbd4e8d79	-0.050427888
146	0xbd871c1e	-0.0659716
147	0x3d969975	0.07353488
148	0xbdb7986e	-0.089646205
149	0x3cd6261f	0.026141224
150	0xbd437820	-0.047721982
151	0xbd8712ba	-0.06595369
152	0xbc567bb3	-0.013091016
153	0xbd1468b7	-0.036232676
154	0x3d97b01c	0.07406637
155	0xbd795e97	-0.060881224
156	0x3d39cd3c	0.045361742
157	0x3ce5b6d8	0.028041288
158	0x3d33b979	0.043878052
159	0x3ccc08d8	0.02490656
160	0xbd6f2a42	-0.05838991
161	0xbce6ebf2	-0.02818868
162	0x3cc1c2d6	0.023652475
163	0x3d90f32d	0.07077632
164	0xbbb14f23	-0.005411045
165	0xbc011cfe	-0.007880447
166	0xbcdba1c2	-0.02681053
167	0xbd4ae81f	-0.049537774
168	0x3d9ebc96	0.07750814
169	0xbda6eb1a	-0.08150311
170	0x3d683efe	0.0567007
171	0x3dcaa683	0.09895041
172	0xbd56b1df	-0.052415725
173	0x3ce69ee2	0.028151933
174	0xbd887d55	-0.0666453
175	0xbd07c775	-0.0331492
176	0xbd23f139	-0.04002497
177	0xbd2e9158	-0.04261908
178	0x3d875b04	0.06609157
179	0xbc929d4c	-0.01789727
180	0x3d243ef0	0.040099084
181	0xbd76f5a0	-0.06029284
182	0xbba39e45	-0.0049932324
183	0x3d0789b6	0.033090316
184	0x3d87c3d7	0.0662915
185	0xbdb7ab51	-0.08968223
186	0x3d81f192	0.06344904
187	0x3d9a5d77	0.07537358
188	0x3c99cdda	0.018774915
189	0x3cf03691	0.029322894
190	0xbd03c408	-0.03216937
191	0x3d2f9c95	0.042873938
192	0x3b854202	0.0040667066
193	0x3dcb3d29	0.09923775
194	0xbdaefe5f	-0.08544611
195	0x3d8efea3	0.06982162
196	0x3d67bfc8	0.05657938
197	0x3d8f73d7	0.070045166
198	0x3da3d87f	0.08000278
199	0x3c42cdbd	0.011889872
200	0x3d6a60c4	0.05722119
201	0xbd423757	-0.047416057
202	0x3d54c34c	0.051944062
203	0x3c8f801e	0.017517146
204	0xbb04431c	-0.0020181602
205	0xbd4deef5	-0.050276715
206	0x3cd48bfb	0.025945654
207	0x3c524510	0.012833849
208	0x3da2f16b	0.07956203
209	0x3da80751	0.082045205
210	0x3d6d6417	0.05795678
211	0xbd8db434	-0.06919137
212	0x3c45d15f	0.012073844
213	0x3dc140ba	0.09436174
214	0x3dc483e9	0.09595472
215	0x3d301118	0.042985052
216	0x3d0563d6	0.032565914
217	0xbdd7fadd	-0.10545895
218	0xbd43e0ec	-0.047821924
219	0xbd08c49a	-0.03339062
220	0xbce4b499	-0.027918147
221	0x3d6b0153	0.05737431
222	0xbd8ca243	-0.068668865
223	0x3c963ab7	0.018338544
224	0xbccecc53	-0.025243914
225	0xbb9b012f	-0.0047303657
226	0xbc5dd52b	-0.013539593
227	0x3d91f85c	0.07127449
228	0x3dacacaf	0.08431374
229	0x3c412236	0.011787942
230	0x3d37f22d	0.04490869
231	0x399829e6	0.00029022916
232	0xbdb89102	-0.09012033
233	0x3d70aee2	0.05876053
234	0xbdbfc61a	-0.09363957
235	0xbd208cb2	-0.039196678
236	0xbdcd3e4e	-0.10021649
237	0x3db0e3b0	0.08637178
238	0x3b935baa	0.004497011
239	0x3d9ff55d	0.07810471
240	0x3d0f423f	0.034975287
241	0x3da973e7	0.0827406
242	0xbdc57040	-0.096405506
243	0x3db38dee	0.08767305
244	0xbd980e64	-0.0742462
245	0xbdb4418a	-0.08801563
246	0xbd4cfab7	-0.050043788
247	0x3dbf9155	0.09353892
248	0xbdd9a5ca	-0.10627325
249	0xbd86d6fe	-0.06583975
250	0xbcc75f8b	-0.02433755
251	0x3c590b46	0.013247317
252	0x3c9eeee4	0.019401021
253	0xbd8aeac6	-0.06783061
254	0xbdd19cf6	-0.10235016
255	0xbd2d8a4d	-0.042368222

net.0.bias f4 [128]
0	0xbd838e58	-0.06423634
1	0x3d745c9a	0.059658624
2	0x3c7f4cad	0.015582246
3	0x3d663ff6	0.05621334
4	0x3d32089b	0.043465238
5	0xbd85ed40	-0.065393925
6	0xbc519d5a	-0.012793863
7	0x3d120a87	0.03565457
8	0xbd12de33	-0.035856437
9	0x3dda7292	0.10666384
10	0xbc37b890	-0.011213437
11	0x3d8e43e9	0.069465466
12	0x3d4c7b7c	0.04992245
13	0xba9e97e2	-0.0012099708
14	0x3cb0233d	0.021501178
15	0x3dad3c76	0.08458798
16	0x3c9efdce	0.019408133
17	0xbc825c3b	-0.01591312
18	0x3d6f043b	0.058353644
19	0xbba64d6a	-0.0050751464
20	0x3d88b834	0.06675759
21	0x3d66021b	0.05615435
22	0xbd79cd8d	-0.060987044
23	0x3dcdf2b3	0.10056057
24	0xbdbf715c	-0.093477935
25	0xbcff2005	-0.031143198
26	0xbc8b9178	-0.017037138
27	0x3ce88c9e	0.028387364
28	0x3d8c1a2a	0.06840928
29	0x3dfae698	0.122510135
30	0x3d952d34	0.072840124
31	0xbca69646	-0.020335328
32	0x3dc5b342	0.09653331
33	0x3d39fb22	0.045405515
34	0x3cc1c9d8	0.023655817
35	0x3db68f96	0.089141056
36	0x3b501335	0.003174973
37	0xbcae7b15	-0.021298924
38	0x3d479a65	0.048731226
39	0xbd663ad2	-0.05620844
40	0xbb1d895d	-0.0024038174
41	0xbd58890b	-0.05286507
42	0x3db109e8	0.086444676
43	0xbbfae1f5	-0.0076563307
44	0x3dc291e6	0.09500484
45	0x3dc5af28	0.09652549
46	0xbd4f2357	-0.050570812
47	0xbd1d817a	-0.038453557
48	0xbcc052ed	-0.023477042
49	0xbdc43341	-0.095800884
50	0xbd0f12b1	-0.034929935
51	0x3d989144	0.07449582
52	0xbd0e378f	-0.034720954
53	0x3dc2e870	0.0951699
54	0xbd1125e4	-0.035436526
55	0xbd632225	-0.055452485
56	0x3d0ec32b	0.034854095
57	0x3dce3035	0.100677885
58	0xbd2f9525	-0.042866845
59	0x3c7c2fc6	0.015392249
60	0x3dc40004	0.095703155
61	0xbbe6792b	-0.0070334873
62	0xbdb72354	-0.08942285
63	0x3ccddfc4	0.025131114
64	0x3ce14e63	0.027503198
65	0xbda33b15	-0.079702534
66	0x3d84aef6	0.06478684
67	0x3c8432f4	0.016137578
68	0xbd2e2c67	-0.042522814
69	0x3d1dc022	0.03851331
70	0xbcb1122e	-0.021615114
71	0xbcfdc354	-0.030976929
72	0xbc2215e7	-0.009892917
73	0xbdd6b28d	-0.104832746
74	0x3d8ea686	0.069653556
75	0x3c621292	0.013798373
76	0x3d4c5190	0.04988247
77	0xbc51a285	-0.012795095
78	0xbd7d6dc8	-0.061872274
79	0x3d3b3c36	0.04571172
80	0xbd8b38a9	-0.067979164
81	0x3d452240	0.048128366
82	0xbc9d0702	-0.01916838
83	0xbc643847	-0.013929433
84	0xbd4733f4	-0.04863353
85	0xbd6a8e4c	-0.05726461
86	0x3dd58cc0	0.104272366
87	0x3d7f3457	0.062305775
88	0xbc83db04	-0.016095646
89	0xbd314fc7	-0.043288972
90	0xbc8c0510	-0.017092258
91	0x3d9db95b	0.077013694
92	0x3ac308f8	0.0014879992
93	0x3d4feccf	0.050762948
94	0xbd54aa72	-0.05192036
95	0x3d234553	0.039861035
96	0x3d0a18a1	0.033714894
97	0xbdcbb1d2	-0.09946026
98	0x3c67000b	0.014099131
99	0xbd8ae367	-0.06781655
100	0xbda00f46	-0.07815413
101	0x3da20c00	0.07912445
102	0x3d910b81	0.07082272
103	0x3ccf8ce7	0.025335742
104	0x3d8cf5a4	0.0688279
105	0xbd96d446	-0.07364707
106	0xbcb7cd18	-0.022436664
107	0x3d4feda3	0.050763737
108	0x3d9743ea	0.073860005
109	0xbd8b12cd	-0.06790695
110	0xbbcae5e5	-0.0061919563
111	0x3b6fd9cd	0.0036598325
112	0x3b0a53c0	0.0021107048
113	0x3d0e7e84	0.034788623
114	0x3dc66b35	0.09688417
115	0x3d9f78e1	0.07786728
116	0xbc8a77a8	-0.01690276
117	0xbdb910f7	-0.09036439
118	0xbd1cf892	-0.038322993
119	0x3daf0bcb	0.08547171
120	0xbd981737	-0.07426303
121	0x3d5baded	0.053632665
122	0x3cf7167c	0.030162089
123	0xbd96fa11	-0.07371915
124	0xbd8dca7a	-0.06923385
125	0x3d93435b	0.071905814
126	0x3b930dcd	0.004487729
127	0x3cf8ddc5	0.030379185

net.2.weight f4 [64, 128]
0	0xbd3ac360	-0.04559648
1	0x3d95549e	0.0729153
2	0x3c45196e	0.012029989
3	0xbc7de11d	-0.015495566
4	0x3d9d2329	0.07672722
5	0xbd566470	-0.05234188
6	0xbc3217ff	-0.010869979
7	0x3d4ff971	0.050774995
8	0x3cee7c52	0.029112015
9	0x3b3d091d	0.0028844543
10	0xbd5ccbb9	-0.053905223
11	0x3d99c430	0.07508123
12	0xbd42d069	-0.047562037
13	0xbc00eee9	-0.007869461
14	0xbd5ee5f6	-0.054418527
15	0xbda75b37	-0.08171695
16	0xbbdc3894	-0.006720612
17	0xbdaa8bee	-0.08327471
18	0x3d8211c6	0.06351046
19	0xbc845fb4	-0.016158916
20	0xba9b1e05	-0.0011834508
21	0xbd7efe80	-0.06225443
22	0xbd8fb9b9	-0.07017846
23	0x3d81213d	0.06305168
24	0xbd1fdd26	-0.039029263
25	0x3da0643f	0.078316204
26	0xbd9bb9a9	-0.07603771
27	0xbd19eb50	-0.037577927
28	0x3d4f1ac5	0.05056264
29	0x3d4e5224	0.050371304
30	0xbd82b5fb	-0.06382366
31	0xbca28648	-0.01983942
32	0xbd1456d3	-0.036215615
33	0x3da23e96	0.079220936
34	0x3d93f320	0.07224107
35	0xbd8b226b	-0.06793674
36	0x3c61fc38	0.013793044
37	0x3cfdfb9c	0.031003766
38	0x3d71ded9	0.059050415
39	0xbcabc5ce	-0.020968344
40	0x3cbaa95b	0.022785833
41	0xbda7851b	-0.08179685
42	0xbca0361f	-0.019557057
43	0x3c6c3626	0.014417207
44	0xbcf7c3c7	-0.030244721
45	0xbd53e457	-0.051731434
46	0x3d8c0975	0.06837741
47	0x3bf2ffd2	0.00741575
48	0x3bf5594e	0.0074874526
49	0xbcbcf1cd	-0.023064518
50	0x3d6fee97	0.058577146
51	0x3d394d23	0.04523958
52	0xbd74d858	-0.059776634
53	0xbd1c810b	-0.038209002
54	0xbdb30ea0	-0.08743024
55	0xbd906913	-0.07051291
56	0xbd15bed7	-0.036558952
57	0xbd438b51	-0.047740284
58	0xbd2c4d84	-0.042066112
59	0xbd2f9e5d	-0.042875636
60	0x3d3f8aae	0.046763115
61	0x3d4e814b	0.050416272
62	0xbceb1dce	-0.028700735
63	0xbce69736	-0.028148275
64	0x3bc3fc11	0.0059809764
65	0xbd7b9823	-0.061424386
66	0x3d777909	0.060418162
67	0x3d84091f	0.06447052
68	0x3ba93991	0.005164333
69	0xbd985278	-0.07437605
70	0xbd0fb87c	-0.035088047
71	0x3c329013	0.010898608
72	0x3d694331	0.056948844
73	0xbd06aaa5	-0.032877583
74	0x3ca559c8	0.020184413
75	0x3d7011d6	0.05861076
76	0xbca841f2	-0.020539258
77	0xbcbadf89	-0.022811668
78	0xbccd659a	-0.025072861
79	0x3c6bb0a4	0.014385376
80	0x3d875187	0.06607347
81	0xbdb3dba4	-0.087821275
82	0x3b9a0fba	0.004701582
83	0x3d51dac0	0.051234007
84	0xbda64c48	-0.08120018
85	0x3d9c511d	0.07632659
86	0x3d9b9945	0.07597593
87	0xbd0dc9d5	-0.03461631
88	0xbd060e30	-0.032728374
89	0xbcdcd5ff	-0.02695751
90	0xbd902a89	-0.07039363
91	0x3d4a98b7	0.049462046
92	0x3d833e19	0.064083286
93	0x3d21d4d1	0.0395096
94	0xbc8df069	-0.01732655
95	0x3d3c3e5c	0.045957908
96	0xbd3bc93c	-0.04584621
97	0xbd8b3b8f	-0.06798469
98	0xbc44bba6	-0.0120076295
99	0x3bd33beb	0.0064463518
100	0xbd851f58	-0.06500119
101	0x3b88a829	0.004170437
102	0xbcf2d5e1	-0.029643001
103	0xbd8c5348	-0.06851822
104	0xbda44c44	-0.08022359
105	0x3cfaf0bb	0.030632367
106	0x3c4230c2	0.011852445
107	0xbd5140c4	-0.051087156
108	0x3db36ff2	0.08761586
109	0xbcc47085	-0.023979435
110	0xbc413474	-0.011792291
111	0xbd9e19dd	-0.07719777
112	0xbc0ffa09	-0.00878764
113	0xbdb00859	-0.08595342
114	0xbcda7330	-0.026666254
115	0xbbb2da8a	-0.005458181
116	0xbd9b290a	-0.07576187
117	0x3bb2211a	0.005436075
118	0x3d964f07	0.07339292
119	0x3bbbd816	0.0057325466
120	0xbb0b923f	-0.0021296886
121	0x3c58b6fe	0.0132272225
122	0xbd673452	-0.05644638
123	0xbd399ddc	-0.045316562
124	0x3c70f91d	0.014707831
125	0x3c85a6e5	0.016314933
126	0x3da6c702	0.081434265
127	0x3d65a5b9	0.05606625
128	0xbce06ece	-0.027396586
129	0xba519d8d	-0.0007996194
130	0x3d8269b2	0.06367816
131	0xbd8a66c2	-0.06757881
132	0x3d82bad0	0.06383288
133	0x3b94f67f	0.004545986
134	0xbdaf3679	-0.08555312
135	0xbc7c49c7	-0.015398449
136	0xbc0ce016	-0.008598348
137	0xbd9a1460	-0.075234175
138	0x3c07685f	0.00826463
139	0x3c942fe3	0.01808924
140	0x3d808503	0.0627537
141	0xbd55ce34	-0.052198604
142	0xbdae4483	-0.08509161
143	0x3be11161	0.006868527
144	0x3b2d7ffe	0.0026473994
145	0xbc2b9017	-0.010471365
146	0xbd186ae0	-0.0372113
147	0xbd5f8362	-0.054568656
148	0x3c1ff6cb	0.00976343
149	0xbd6b6fda	-0.057479717
150	0x3cdf11c2	0.027230147
151	0x3d16930e	0.036761336
152	0x3cf65853	0.030071413
153	0x3b1a1a75	0.0023514305
154	0xbd8ae49b	-0.06781884
155	0x3d59f686	0.05321362
156	0xbdb82604	-0.08991626
157	0xbbe3d0c6	-0.006952378
158	0x3c5e8e38	0.013583712
159	0x3b7ddf07	0.003873767
160	0xbca2d0c5	-0.01987494
161	0x3d99498a	0.074847296
162	0x3d8a1a4f	0.06743299
163	0x3d65fccc	0.05614929
164	0xbd111c44	-0.035427347
165	0xbda33c2c	-0.07970461
166	0xbcd5a3e5	-0.026079128
167	0x3c4cb93a	0.012495333
168	0x3d258ea6	0.040419243
169	0xbda22f88	-0.07919222
170	0x3d5d83a1	0.05408061
171	0x3d7ce2f9	0.061739895
172	0xbd5a4913	-0.053292345
173	0x3d1a463a	0.03766463
174	0x3d2dc06c	0.042419836
175	0xbdb1704f	-0.08663999
176	0x3d4da891	0.050209586
177	0xbc7b23c6	-0.015328353
178	0xbd0ade46	-0.033903383
179	0x3d1fe601	0.03903771
180	0x3d3e205e	0.046417587
181	0x3d17a43c	0.03702186
182	0x3da89d02	0.08233072
183	0x3d8165b2	0.06318225
184	0x3c92f6c6	0.017939936
185	0x3d36c587	0.04462197
186	0x3bd116f0	0.006380908
187	0xbd6c21a3	-0.057649266
188	0xbd9edd35	-0.07757036
189	0xbd692d98	-0.056928247
190	0x3da26b33	0.07930603
191	0xbd4204cc	-0.047367856
192	0xbd1d6195	-0.03842314
193	0xbc557b31	-0.013029859
194	0x3d4f3a86	0.05059292
195	0x3d396129	0.045258675
196	0xbd4cde36	-0.050016604
197	0xbc96ad87	-0.018393291
198	0xbc28b7c5	-0.01029772
199	0xbc7a4608	-0.015275486
200	0x3d53e964	0.05173625
201	0xbd321f39	-0.043486807
202	0x3d015719	0.031577203
203	0xbdb1e83b	-0.086868726
204	0x3cbdd365	0.02317209
205	0xbbfa6872	-0.0076418454
206	0x3ba0f664	0.0049121846
207	0xbc694b67	-0.014239169
208	0xbc94a79c	-0.018146329
209	0xbb6d8e1d	-0.0036248036
210	0xbdc486c5	-0.09596018
211	0xbd0e1be6	-0.034694575
212	0xbd882895	-0.066483654
213	0x3d595a13	0.053064417
214	0xbc516f89	-0.01278294
215	0xbd9bc129	-0.07605202
216	0x3d8eb365	0.069678105
217	0xbccad7ef	-0.024761168
218	0x3d152188	0.03640893
219	0xbdb29197	-0.08719175
220	0x3d77be80	0.06048441
221	0xbd934189	-0.07190234
222	0xbda3272d	-0.079664566
223	0x3cca00ef	0.024658648
224	0xbd7f15f1	-0.062276784
225	0x3cfb8216	0.030701678
226	0xbd70d721	-0.058798913
227	0x3d559a5f	0.052149173
228	0x3d2602ca	0.040530004
229	0xbcdefd57	-0.027220411
230	0x3d85c29d	0.0653126
231	0xbd4b497e	-0.049630634
232	0xbc4a062c	-0.012330573
233	0xbd950763	-0.072767995
234	0xbd860ace	-0.065450296
235	0xbd4ea64b	-0.050451558
236	0xbda20187	-0.079104476
237	0xbd3fdc81	-0.04684115
238	0x3b44caa7	0.0030028017
239	0x3d6c2cd0	0.057659924
240	0x3c6d8294	0.014496464
241	0xbd839929	-0.06425697
242	0x3d161573	0.03664155
243	0x3d52e7df	0.05149066
244	0xbd483a73	-0.048883867
245	0xbcdc31cb	-0.026879212
246	0x3d90d9cb	0.07072791
247	0x3d0a504d	0.033767987
248	0x3d781f22	0.060576566
249	0x3d11bf2d	0.03558271
250	0xbc7c67a8	-0.015405573
251	0xbcdd70f6	-0.027031403
252	0xbd5c7385	-0.053821106
253	0xbd22a33d	-0.039706457
254	0x3c65235d	0.013985482
255	0x3d897eb3	0.06713619

net.2.bias f4 [64]
0	0x3d2adbad	0.041713405
1	0x3bcbb07a	0.006216106
2	0x3c1a9159	0.009434068
3	0xbb5a1e0b	-0.0033282067
4	0x3c76d47e	0.0150653105
5	0x3ca6d072	0.020363066
6	0xbcfe6180	-0.031052351
7	0x3cc3a3ad	0.023881758
8	0x3cc98d57	0.024603529
9	0xbd7e282b	-0.062050026
10	0xbd812308	-0.0630551
11	0x3d76e179	0.06027362
12	0xbd111889	-0.03542379
13	0xbd56fde7	-0.052488234
14	0x3d541b02	0.05178357
15	0x3d8577be	0.0651698
16	0xbcff5442	-0.031168107
17	0xbc7eaa2f	-0.015543505
18	0x3d2cf4f8	0.042225808
19	0x3d89193a	0.06694265
20	0x3d86cb71	0.06581772
21	0x3da02aa3	0.07820632
22	0xbba41d8a	-0.005008404
23	0xbd61553f	-0.055012938
24	0xbd15f7ef	-0.0366134
25	0xbcab6458	-0.020921871
26	0x3d49368e	0.049124293
27	0x3d3dbcfe	0.046322815
28	0x3b00f22f	0.0019675603
29	0x3df27e55	0.11840502
30	0xbd0d299d	-0.034463514
31	0xbcbcd787	-0.02305199
32	0xbcccffea	-0.025024373
33	0x3ca6b55e	0.020350154
34	0xbd12b74c	-0.035819337
35	0x3c6f81d1	0.014618353
36	0x3d6bc160	0.057557464
37	0x3d6dd60f	0.05806547
38	0xbda582b9	-0.08081574
39	0xbc9c642a	-0.01909073
40	0xbd8ab557	-0.06772869
41	0xbd8fd79f	-0.07023548
42	0xbd3f2998	-0.046670526
43	0x3d5d9b33	0.054103088
44	0x3d864b81	0.0655737
45	0x3c44918c	0.011997592
46	0xbd2a3f99	-0.041564558
47	0xbd2ae470	-0.04172176
48	0x3c2cfcbb	0.0105583025
49	0x3d836d8d	0.064173795
50	0x3d14cb2f	0.036326583
51	0xbd6d6dcd	-0.057966042
52	0xbdbde48a	-0.09272106
53	0x3cfbb35e	0.030725177
54	0x3ca7c30e	0.020478752
55	0xbd252c55	-0.04032548
56	0x3d596d7e	0.053082936
57	0x3d3cf444	0.046131387
58	0x3d484363	0.04889239
59	0xbd63eb2c	-0.0556442
60	0x3da77957	0.081774406
61	0xbd8da47d	-0.06916139
62	0x3d837853	0.064194344
63	0xbd9151b5	-0.070956625

net.4.weight f4 [8, 64]
0	0x3dca2184	0.09869674
1	0x3d041582	0.032247074
2	0x3da52b5a	0.08064909
3	0x3dc792b1	0.09744776
4	0x3d2f15d0	0.04274541
5	0x3df1cc80	0.118065834
6	0x3d9635cb	0.07334479
7	0xbda79c6a	-0.081841305
8	0xbdf2148d	-0.11820326
9	0xbbefe438	-0.007320907
10	0xbdad83ef	-0.0847243
11	0x3d7bd322	0.06148065
12	0x3dcfbd97	0.10143583
13	0xbdc84686	-0.09779076
14	0x3d01801c	0.031616315
15	0x3dfb4aa1	0.12270094
16	0xbd0d961c	-0.034566984
17	0x3e04114f	0.12897228
18	0xbdbc2c16	-0.09188096
19	0x3e19c3b7	0.15016066
20	0xbd34ca2e	-0.044138126
21	0xbdf187b8	-0.117934644
22	0xbd16cfe2	-0.036819346
23	0xbcd813c7	-0.026376618
24	0xbd107775	-0.035270173
25	0x3bf0edcc	0.0073525663
26	0xbdea9514	-0.11454216
27	0x3e092e20	0.13396502
28	0x3cec4468	0.028841212
29	0x3d260919	0.04053602
30	0x3e122354	0.14271289
31	0xbc3d062c	-0.011537116
32	0x3da83d13	0.08214774
33	0xbd6ecce8	-0.058300883
34	0xbcb3f105	-0.021965513
35	0x3c6726b8	0.014108352
36	0x3e1ad3df	0.15119885
37	0x3c998702	0.018741135
38	0xbcc1573c	-0.023601167
39	0xbda72c75	-0.081627764
40	0x3caa99be	0.020825263
41	0x3df20110	0.11816609
42	0xbd60cb43	-0.054881345
43	0xbc25b25f	-0.010113328
44	0xbd9c0838	-0.07618755
45	0xbd3c9927	-0.046044495
46	0xbdc7762d	-0.09739337
47	0x3d899f87	0.067198806
48	0x3e0e4530	0.1389358
49	0xbda87ff2	-0.08227529
50	0x3c02c76e	0.007982118
51	0xbd0ba5f2	-0.034093805
52	0x3cec6f14	0.02886156
53	0x3de2608b	0.1105357
54	0x3db3be57	0.08776539
55	0x3d989732	0.07450713
56	0x3dd5da59	0.10442037
57	0x3deb8eca	0.11501844
58	0x3df2c93e	0.1185479
59	0xbdd8d2ce	-0.10587083
60	0x3d957a63	0.07298734
61	0xbcc7238e	-0.024308946
62	0xb93d7d30	-0.0001807108
63	0x3c6b0788	0.014345057
64	0x3a0b209c	0.00053072884
65	0x3d2c033f	0.041995283
66	0xbd2aef34	-0.041732028
67	0x3ac4061f	0.0014955438
68	0x3d6d301e	0.057907216
69	0x3cebd6ad	0.028788889
70	0x3d9c5d3c	0.076349705
71	0xbdbce9d2	-0.09224285
72	0xbc4933b0	-0.01228039
73	0xbd969ef2	-0.07354535
74	0x3d64180c	0.055686995
75	0xbe07b2ac	-0.13251752
76	0xbe20bef4	-0.15697843
77	0xbd63e6ac	-0.055639908
78	0x3d6dc178	0.058045834
79	0x3c9794d6	0.018503588
80	0x3af4334b	0.0018631009
81	0xbdb01bdd	-0.085990645
82	0xbd9fed4e	-0.07808934
83	0xbd6045af	-0.054753955
84	0xbbef3b9b	-0.0073008067
85	0xbd697ecc	-0.05700569
86	0x3de6709f	0.112519495
87	0x3dcbfa06	0.099597976
88	0xbe09d079	-0.13458432
89	0x3d9f33eb	0.077735744
90	0xbde3213c	-0.11090323
91	0xbe1b950c	-0.15193576
92	0x3dd5c30e	0.10437594
93	0xbe1e337a	-0.15449324
94	0x3d1318cf	0.03591233
95	0x3c908c1c	0.017644934
96	0xbde64ec4	-0.11245492
97	0x3dd4cb4a	0.10390337
98	0x3d9d3971	0.07676972
99	0xbd736f20	-0.05943215
100	0xbe014547	-0.12624083
101	0x3bd3024b	0.0064394823
102	0x3d87689b	0.06611749
103	0xbd02a3d0	-0.031894505
104	0x3de81c7c	0.11333558
105	0xbd189b6c	-0.037257597
106	0x3d8c6944	0.06856015
107	0xbd4c134f	-0.0498231
108	0xbd5e1c2c	-0.054226086
109	0xbd1cc1b7	-0.03827068
110	0x3c55cb57	0.013048968
111	0x3c1212b3	0.008915591
112	0x3d606f8a	0.054793872
113	0xbdede52e	-0.11615978
114	0x3d119855	0.035545666
115	0x3d1c1759	0.038108204
116	0xbddbd321	-0.10733629
117	0xbdbd5ca6	-0.09246187
118	0x3d883282	0.066502586
119	0xbd76d9a7	-0.060266163
120	0xbdd62853	-0.1045691
121	0xbbbda2a3	-0.00578721
122	0x3da84780	0.082167625
123	0xbdd9fac8	-0.10643536
124	0xbdae0e4d	-0.084988214
125	0xbdec6874	-0.1154336
126	0x3c63d44c	0.013905596
127	0xbdd01982	-0.10161115
128	0xbdca370c	-0.098737806
129	0x3e01feac	0.12694806
130	0xbde5c6d8	-0.11219567
131	0x3b135b91	0.0022484998
132	0xbcb10f89	-0.021613853
133	0x3df86a8a	0.12129696
134	0x3dc9085c	0.098160475
135	0x3d342927	0.04398456
136	0xbd4fd06d	-0.05073588
137	0xbc3a7f3c	-0.011382874
138	0x3dcbc0a6	0.09948854
139	0x3d229aa0	0.039698243
140	0x3dc30c1f	0.09523796
141	0x3ded708c	0.11593732
142	0x3d55470c	0.05206971
143	0x3e1b55ff	0.15169524
144	0x3d9a5b8a	0.07536991
145	0x3dc906ab	0.09815725
146	0x3dd24f02	0.10268976
147	0x3e253961	0.1613517
148	0x3de061f6	0.109561846
149	0xbd9df82c	-0.07713351
150	0x3de4502d	0.11148105
151	0x3b4754c6	0.003041552
152	0xbb952833	-0.0045519113
153	0x3d4d9dd6	0.050199352
154	0x3c6392f8	0.013890021
155	0xbc89c56c	-0.01681777
156	0xbd5fee34	-0.054670528
157	0x3e1d3e7c	0.15355867
158	0x3d84135e	0.064490065
159	0x3db5777e	0.08860682
160	0x3dc2ba41	0.09508181
161	0xbb9a3c65	-0.0047069066
162	0xbdf2c655	-0.11854235
163	0xbd4184d4	-0.047245815
164	0x3c08708e	0.008327616
165	0x3df29233	0.118442915
166	0x3dba1da3	0.09087684
167	0xbddc2f62	-0.10751225
168	0xbdaae47f	-0.083443634
169	0xbdaac2d0	-0.08337939
170	0xbc8f714f	-0.017510084
171	0x3d9e1efa	0.07720752
172	0xbb9c933c	-0.004778294
173	0xbddd66cd	-0.10810623
174	0x3dc63e4b	0.0967985
175	0x3db83366	0.089941785
176	0xbd94e264	-0.07269743
177	0x3da85b80	0.08220577
178	0xbd19e0e5	-0.03756799
179	0x3d92ca2d	0.07167468
180	0xbce57670	-0.028010577
181	0x3d1c98d1	0.038231675
182	0xbdc185e5	-0.094493665
183	0x3ca17de5	0.019713352
184	0xbd5c1f6c	-0.053740904
185	0x3c035798	0.008016489
186	0xbc1b1ecc	-0.009467792
187	0xbd4842d4	-0.048891857
188	0x3e19bcf1	0.15013482
189	0x3de9641e	0.11396049
190	0xbdc44f8d	-0.095854856
191	0xbdc6b3c8	-0.09702259
192	0xbd481c1c	-0.048854932
193	0xbd9ed279	-0.07754988
194	0xbdf9090e	-0.1215993
195	0x3d15df9d	0.036590207
196	0xbc453d16	-0.01203849
197	0xbcf96e92	-0.030448232
198	0xbe15b088	-0.14618123
199	0x3db7bea1	0.089719065
200	0xbda87c6c	-0.082268566
201	0xbdc0eb04	-0.09419826
202	0xbc8852cc	-0.016641043
203	0x3d27daee	0.040980272
204	0xbdb79ad5	-0.08965079
205	0x3dcf6412	0.10126509
206	0xbd626460	-0.055271506
207	0xbdad6afd	-0.08467672
208	0x3d5dcb48	0.054148942
209	0xbd991d29	-0.07476265
210	0x3d90f18c	0.070773214
211	0xbe19ccac	-0.15019482
212	0xbe115664	-0.14193112
213	0xbd14b6f4	-0.03630729
214	0x3da281e5	0.07934932
215	0xbc4c8aad	-0.012484235
216	0xbd0ae9a2	-0.033914216
217	0xbdda392e	-0.106554374
218	0x3befe358	0.0073208027
219	0x3c823a1f	0.015896855
220	0x3d3c4784	0.04596664
221	0x3d96134b	0.073278986
222	0xbd08707e	-0.033310406
223	0x3d1dfd60	0.038571715
224	0xbd55ea69	-0.052225504
225	0x3d76757e	0.060170643
226	0xbbc486f0	-0.005997531
227	0xbc027d0c	-0.007964384
228	0xbe007321	-0.12543918
229	0x3c99e9ea	0.018788297
230	0x3d7cb30a	0.061694182
231	0xbcd0e2c4	-0.025498755
232	0xbde71ab4	-0.1128439
233	0xbdc8f656	-0.0981261
234	0xbdcf801f	-0.10131859
235	0xbd52e802	-0.05149079
236	0xbc0d356c	-0.008618694
237	0xbd1e1b46	-0.03860023
238	0x3d8676b4	0.065656096
239	0xbd85b26e	-0.065281734
240	0xbc6fc1d4	-0.014633615
241	0x3cee4248	0.02908434
242	0x3d8d0b4c	0.0688692
243	0x3dd74e2a	0.105129555
244	0xbd296252	-0.04135353
245	0xbe271ad1	-0.16318823
246	0xbcb320c8	-0.021866217
247	0xbd814286	-0.063115165
248	0xbe28ef9f	-0.16497658
249	0x3c1ef41f	0.009701758
250	0xbdf3ac2e	-0.11898075
251	0x3d877986	0.06614976
252	0xbc39ba62	-0.011335941
253	0x3d933dcc	0.07189521
254	0x3cf42b85	0.029805908
255	0xbbddf3b8	-0.0067734383

net.4.bias f4 [8]
0	0x3c283ecd	0.010268879
1	0xbcc2fd6b	-0.02380248
2	0x3d4ba856	0.049721085
3	0xbe10a49b	-0.14125292
4	0xbe20df0b	-0.15710084
5	0xbca91083	-0.020637756
6	0xbe123051	-0.14276244
7	0xb9701fb1	-0.0002289999

exp_avg f4 [128, 99]
0	0x00000000	0.0
1	0x00000000	0.0
2	0x00000000	0.0
3	0x00000000	0.0
4	0x00000000	0.0
5	0x00000000	0.0
6	0x00000000	0.0
7	0x00000000	0.0
8	0x00000000	0.0
9	0x00000000	0.0
10	0x00000000	0.0
11	0x00000000	0.0
12	0x00000000	0.0
13	0x00000000	0.0
14	0x00000000	0.0
15	0x00000000	0.0
16	0x00000000	0.0
17	0x00000000	0.0
18	0x00000000	0.0
19	0x00000000	0.0
20	0x00000000	0.0
21	0x00000000	0.0
22	0x00000000	0.0
23	0x00000000	0.0
24	0x00000000	0.0
25	0x00000000	0.0
26	0x00000000	0.0
27	0x00000000	0.0
28	0x00000000	0.0
29	0x00000000	0.0
30	0x00000000	0.0
31	0x00000000	0.0
32	0x00000000	0.0
33	0x00000000	0.0
34	0x00000000	0.0
35	0x00000000	0.0
36	0x00000000	0.0
37	0x00000000	0.0
38	0x00000000	0.0
39	0x00000000	0.0
40	0x00000000	0.0
41	0x00000000	0.0
42	0x00000000	0.0
43	0x00000000	0.0
44	0x00000000	0.0
45	0x00000000	0.0
46	0x00000000	0.0
47	0x00000000	0.0
48	0x00000000	0.0
49	0x00000000	0.0
50	0x00000000	0.0
51	0x00000000	0.0
52	0x00000000	0.0
53	0x00000000	0.0
54	0x00000000	0.0
55	0x00000000	0.0
56	0x00000000	0.0
57	0x00000000	0.0
58	0x00000000	0.0
59	0x00000000	0.0
60	0x00000000	0.0
61	0x00000000	0.0
62	0x00000000	0.0
63	0x00000000	0.0
64	0x00000000	0.0
65	0x00000000	0.0
66	0x00000000	0.0
67	0x00000000	0.0
68	0x00000000	0.0
69	0x00000000	0.0
70	0x00000000	0.0
71	0x00000000	0.0
72	0x00000000	0.0
73	0x00000000	0.0
74	0x00000000	0.0
75	0x00000000	0.0
76	0x00000000	0.0
77	0x00000000	0.0
78	0x00000000	0.0
79	0x00000000	0.0
80	0x00000000	0.0
81	0x00000000	0.0
82	0x00000000	0.0
83	0x00000000	0.0
84	0x00000000	0.0
85	0x00000000	0.0
86	0x00000000	0.0
87	0x00000000	0.0
88	0x00000000	0.0
89	0x00000000	0.0
90	0x00000000	0.0
91	0x00000000	0.0
92	0x00000000	0.0
93	0x00000000	0.0
94	0x00000000	0.0
95	0x00000000	0.0
96	0x00000000	0.0
97	0x00000000	0.0
98	0x00000000	0.0
99	0x00000000	0.0
100	0x00000000	0.0
101	0x00000000	0.0
102	0x00000000	0.0
103	0x00000000	0.0
104	0x00000000	0.0
105	0x00000000	0.0
106	0x00000000	0.0
107	0x00000000	0.0
108	0x00000000	0.0
109	0x00000000	0.0
110	0x00000000	0.0
111	0x00000000	0.0
112	0x00000000	0.0
113	0x00000000	0.0
114	0x00000000	0.0
115	0x00000000	0.0
116	0x00000000	0.0
117	0x00000000	0.0
118	0x00000000	0.0
119	0x00000000	0.0
120	0x00000000	0.0
121	0x00000000	0.0
122	0x00000000	0.0
123	0x00000000	0.0
124	0x00000000	0.0
125	0x00000000	0.0
126	0x00000000	0.0
127	0x00000000	0.0
128	0x00000000	0.0
129	0x00000000	0.0
130	0x00000000	0.0
131	0x00000000	0.0
132	0x00000000	0.0
133	0x00000000	0.0
134	0x00000000	0.0
135	0x00000000	0.0
136	0x00000000	0.0
137	0x00000000	0.0
138	0x00000000	0.0
139	0x00000000	0.0
140	0x00000000	0.0
141	0x00000000	0.0
142	0x00000000	0.0
143	0x00000000	0.0
144	0x00000000	0.0
145	0x00000000	0.0
146	0x00000000	0.0
147	0x00000000	0.0
148	0x00000000	0.0
149	0x00000000	0.0
150	0x00000000	0.0
151	0x00000000	0.0
152	0x00000000	0.0
153	0x00000000	0.0
154	0x00000000	0.0
155	0x00000000	0.0
156	0x00000000	0.0
157	0x00000000	0.0
158	0x00000000	0.0
159	0x00000000	0.0
160	0x00000000	0.0
161	0x00000000	0.0
162	0x00000000	0.0
163	0x00000000	0.0
164	0x00000000	0.0
165	0x00000000	0.0
166	0x00000000	0.0
167	0x00000000	0.0
168	0x00000000	0.0
169	0x00000000	0.0
170	0x00000000	0.0
171	0x00000000	0.0
172	0x00000000	0.0
173	0x00000000	0.0
174	0x00000000	0.0
175	0x00000000	0.0
176	0x00000000	0.0
177	0x00000000	0.0
178	0x00000000	0.0
179	0x00000000	0.0
180	0x00000000	0.0
181	0x00000000	0.0
182	0x00000000	0.0
183	0x00000000	0.0
184	0x00000000	0.0
185	0x00000000	0.0
186	0x00000000	0.0
187	0x00000000	0.0
188	0x00000000	0.0
189	0x00000000	0.0
190	0x00000000	0.0
191	0x00000000	0.0
192	0x00000000	0.0
193	0x00000000	0.0
194	0x00000000	0.0
195	0x00000000	0.0
196	0x00000000	0.0
197	0x00000000	0.0
198	0xb251b555	-1.2206631e-08
199	0x328f6f94	1.669813e-08
200	0x31f28751	7.0585107e-09
201	0xb2c17540	-2.2521476e-08
202	0xb2d3b85c	-2.464747e-08
203	0x31833700	3.8188546e-09
204	0xb21b6291	-9.044599e-09
205	0x328296e4	1.5202609e-08
206	0x31f0e605	7.0110695e-09
207	0xb2aff9b4	-2.0486233e-08
208	0xb20dce57	-8.254196e-09
209	0x31a64521	4.839095e-09
210	0x32a23f75	1.8888139e-08
211	0x3282e231	1.5236852e-08
212	0x3174b811	3.5611303e-09
213	0xb2bd61d2	-2.204698e-08
214	0xb1778d6a	-3.6023615e-09
215	0x31bd320e	5.5063145e-09
216	0x32974005	1.7607826e-08
217	0x32932dd0	1.7133885e-08
218	0x315e20d1	3.2323906e-09
219	0xb29ce4ed	-1.8264894e-08
220	0xb1b96921	-5.3961604e-09
221	0x31d008f2	6.0546137e-09
222	0x322bad8c	9.99297e-09
223	0x32567a85	1.2484297e-08
224	0x31857b7d	3.8848484e-09
225	0xb2b14e0c	-2.0641004e-08
226	0xb1d91ea3	-6.319014e-09
227	0x31ebbbc2	6.8607457e-09
228	0x318354db	3.8222487e-09
229	0x31ad6f79	5.0476356e-09
230	0x31a21637	4.717346e-09
231	0xb279ecf0	-1.4547581e-08
232	0xb1a7b31a	-4.880701e-09
233	0x31f396a1	7.0893553e-09
234	0xb1334d3e	-2.6091835e-09
235	0xb0a5aca8	-1.2054402e-09
236	0x31a69c5a	4.849011e-09
237	0xb1a98dab	-4.934653e-09
238	0xb0fa0b3c	-1.8193087e-09
239	0x31c8e175	5.8463976e-09
240	0xb1a90d4c	-4.920059e-09
241	0xb1624b3d	-3.2930096e-09
242	0x31879769	3.9462305e-09
243	0x30a52b80	1.2017694e-09
244	0x310f7a9f	2.087894e-09
245	0x319c0ab5	4.541415e-09
246	0xb1b9a980	-5.4034786e-09
247	0xb175895a	-3.5730268e-09
248	0x315f7776	3.2518677e-09
249	0x3191c225	4.242127e-09
250	0x318877f8	3.97176e-09
251	0x31815cdd	3.7649515e-09
252	0xb1be4868	-5.5379594e-09
253	0xb180350e	-3.731322e-09
254	0x3151d9ca	3.0537302e-09
255	0x31b110eb	5.1533013e-09

exp_avg_sq f4 [128, 99]
0	0x00000000	0.0
1	0x00000000	0.0
2	0x00000000	0.0
3	0x00000000	0.0
4	0x00000000	0.0
5	0x00000000	0.0
6	0x00000000	0.0
7	0x00000000	0.0
8	0x00000000	0.0
9	0x00000000	0.0
10	0x00000000	0.0
11	0x00000000	0.0
12	0x00000000	0.0
13	0x00000000	0.0
14	0x00000000	0.0
15	0x00000000	0.0
16	0x00000000	0.0
17	0x00000000	0.0
18	0x00000000	0.0
19	0x00000000	0.0
20	0x00000000	0.0
21	0x00000000	0.0
22	0x00000000	0.0
23	0x00000000	0.0
24	0x00000000	0.0
25	0x00000000	0.0
26	0x00000000	0.0
27	0x00000000	0.0
28	0x00000000	0.0
29	0x00000000	0.0
30	0x00000000	0.0
31	0x00000000	0.0
32	0x00000000	0.0
33	0x00000000	0.0
34	0x00000000	0.0
35	0x00000000	0.0
36	0x00000000	0.0
37	0x00000000	0.0
38	0x00000000	0.0
39	0x00000000	0.0
40	0x00000000	0.0
41	0x00000000	0.0
42	0x00000000	0.0
43	0x00000000	0.0
44	0x00000000	0.0
45	0x00000000	0.0
46	0x00000000	0.0
47	0x00000000	0.0
48	0x00000000	0.0
49	0x00000000	0.0
50	0x00000000	0.0
51	0x00000000	0.0
52	0x00000000	0.0
53	0x00000000	0.0
54	0x00000000	0.0
55	0x00000000	0.0
56	0x00000000	0.0
57	0x00000000	0.0
58	0x00000000	0.0
59	0x00000000	0.0
60	0x00000000	0.0
61	0x00000000	0.0
62	0x00000000	0.0
63	0x00000000	0.0
64	0x00000000	0.0
65	0x00000000	0.0
66	0x00000000	0.0
67	0x00000000	0.0
68	0x00000000	0.0
69	0x00000000	0.0
70	0x00000000	0.0
71	0x00000000	0.0
72	0x00000000	0.0
73	0x00000000	0.0
74	0x00000000	0.0
75	0x00000000	0.0
76	0x00000000	0.0
77	0x00000000	0.0
78	0x00000000	0.0
79	0x00000000	0.0
80	0x00000000	0.0
81	0x00000000	0.0
82	0x00000000	0.0
83	0x00000000	0.0
84	0x00000000	0.0
85	0x00000000	0.0
86	0x00000000	0.0
87	0x00000000	0.0
88	0x00000000	0.0
89	0x00000000	0.0
90	0x00000000	0.0
91	0x00000000	0.0
92	0x00000000	0.0
93	0x00000000	0.0
94	0x00000000	0.0
95	0x00000000	0.0
96	0x00000000	0.0
97	0x00000000	0.0
98	0x00000000	0.0
99	0x00000000	0.0
100	0x00000000	0.0
101	0x00000000	0.0
102	0x00000000	0.0
103	0x00000000	0.0
104	0x00000000	0.0
105	0x00000000	0.0
106	0x00000000	0.0
107	0x00000000	0.0
108	0x00000000	0.0
109	0x00000000	0.0
110	0x00000000	0.0
111	0x00000000	0.0
112	0x00000000	0.0
113	0x00000000	0.0
114	0x00000000	0.0
115	0x00000000	0.0
116	0x00000000	0.0
117	0x00000000	0.0
118	0x00000000	0.0
119	0x00000000	0.0
120	0x00000000	0.0
121	0x00000000	0.0
122	0x00000000	0.0
123	0x00000000	0.0
124	0x00000000	0.0
125	0x00000000	0.0
126	0x00000000	0.0
127	0x00000000	0.0
128	0x00000000	0.0
129	0x00000000	0.0
130	0x00000000	0.0
131	0x00000000	0.0
132	0x00000000	0.0
133	0x00000000	0.0
134	0x00000000	0.0
135	0x00000000	0.0
136	0x00000000	0.0
137	0x00000000	0.0
138	0x00000000	0.0
139	0x00000000	0.0
140	0x00000000	0.0
141	0x00000000	0.0
142	0x00000000	0.0
143	0x00000000	0.0
144	0x00000000	0.0
145	0x00000000	0.0
146	0x00000000	0.0
147	0x00000000	0.0
148	0x00000000	0.0
149	0x00000000	0.0
150	0x00000000	0.0
151	0x00000000	0.0
152	0x00000000	0.0
153	0x00000000	0.0
154	0x00000000	0.0
155	0x00000000	0.0
156	0x00000000	0.0
157	0x00000000	0.0
158	0x00000000	0.0
159	0x00000000	0.0
160	0x00000000	0.0
161	0x00000000	0.0
162	0x00000000	0.0
163	0x00000000	0.0
164	0x00000000	0.0
165	0x00000000	0.0
166	0x00000000	0.0
167	0x00000000	0.0
168	0x00000000	0.0
169	0x00000000	0.0
170	0x00000000	0.0
171	0x00000000	0.0
172	0x00000000	0.0
173	0x00000000	0.0
174	0x00000000	0.0
175	0x00000000	0.0
176	0x00000000	0.0
177	0x00000000	0.0
178	0x00000000	0.0
179	0x00000000	0.0
180	0x00000000	0.0
181	0x00000000	0.0
182	0x00000000	0.0
183	0x00000000	0.0
184	0x00000000	0.0
185	0x00000000	0.0
186	0x00000000	0.0
187	0x00000000	0.0
188	0x00000000	0.0
189	0x00000000	0.0
190	0x00000000	0.0
191	0x00000000	0.0
192	0x00000000	0.0
193	0x00000000	0.0
194	0x00000000	0.0
195	0x00000000	0.0
196	0x00000000	0.0
197	0x00000000	0.0
198	0x327e60e7	1.4806779e-08
199	0x32ee270f	2.7724608e-08
200	0x31a9ca91	4.9415765e-09
201	0x33584ed4	5.0363113e-08
202	0x33819ec4	6.03591e-08
203	0x30c6dac5	1.4468574e-09
204	0x320b315c	8.102088e-09
205	0x32c51f46	2.294804e-08
206	0x31a788b7	4.8758824e-09
207	0x3332ffc3	4.167647e-08
208	0x31e97cd9	6.795386e-09
209	0x311fa0df	2.322899e-09
210	0x331839b2	3.544273e-08
211	0x32c5cb1a	2.3026178e-08
212	0x30acf352	1.2583803e-09
213	0x334f912a	4.832797e-08
214	0x30b26b0f	1.2981632e-09
215	0x314ebaef	3.0083205e-09
216	0x3304730d	3.0838283e-08
217	0x32fa889a	2.916595e-08
218	0x308e89fc	1.0371077e-09
219	0x330e7a77	3.3173333e-08
220	0x31462f08	2.8839526e-09
221	0x3179f2fe	3.6372394e-09
222	0x322b2570	9.962022e-09
223	0x32850fd4	1.5490436e-08
224	0x30cde3e1	1.498048e-09
225	0x3335f745	4.2367237e-08
226	0x3187ac9e	3.9486414e-09
227	0x31a06dc4	4.669092e-09
228	0x30c8dbe6	1.4614414e-09
229	0x312e96d2	2.5406064e-09
230	0x3117c6aa	2.208632e-09
231	0x32b4e704	2.1059812e-08
232	0x3121e54f	2.355893e-09
233	0x31ab4fd7	4.9858317e-09
234	0x3037aa11	6.681669e-10
235	0x2f1dd384	1.4354212e-10
236	0x31206881	2.3342468e-09
237	0x31272e5d	2.4328053e-09
238	0x2fb27107	3.2458322e-10
239	0x31690809	3.391053e-09
240	0x3124823e	2.3939175e-09
241	0x3093d7e1	1.0757014e-09
242	0x30d4865a	1.5463215e-09
243	0x2f1ad7a6	1.4082832e-10
244	0x2fedca66	4.3253862e-10
245	0x310ca022	2.0463706e-09
246	0x314787d0	2.9035512e-09
247	0x30ae788b	1.2694427e-09
248	0x30905acb	1.0503184e-09
249	0x30f4d684	1.7814306e-09
250	0x30d61ef7	1.557935e-09
251	0x30c15e57	1.4069411e-09
252	0x31518345	3.048812e-09
253	0x30beb32d	1.3875244e-09
254	0x307e8da9	9.2605973e-10
255	0x31359e02	2.6428784e-09

exp_avg f4 [128]
0	0x00000000	0.0
1	0x00000000	0.0
2	0x321c7a29	9.108171e-09
3	0x2f22f725	1.4821618e-10
4	0x00000000	0.0
5	0x00000000	0.0
6	0x31bf8792	5.574244e-09
7	0x00000000	0.0
8	0x00000000	0.0
9	0x378b49fb	1.6604541e-05
10	0x00000000	0.0
11	0x33160b17	3.4934683e-08
12	0x37478bbb	1.1893858e-05
13	0x37a4963e	1.9620285e-05
14	0x37153da1	8.895441e-06
15	0x37e2adcf	2.7022235e-05
16	0x00000000	0.0
17	0x2f69571a	2.1222171e-10
18	0x00000000	0.0
19	0x00000000	0.0
20	0x3693b593	4.4020794e-06
21	0x36f2292a	7.216954e-06
22	0x3738ea55	1.1021814e-05
23	0x36936fad	4.393942e-06
24	0x00000000	0.0
25	0x379b63e7	1.852396e-05
26	0x371c8161	9.328448e-06
27	0x37898122	1.6391805e-05
28	0x3740b26c	1.1485634e-05
29	0x3760896b	1.33834355e-05
30	0x34477ba7	1.8578304e-07
31	0x3792e30b	1.7510281e-05
32	0x00000000	0.0
33	0x325de74b	1.2916483e-08
34	0x00000000	0.0
35	0x362f54bb	2.6126352e-06
36	0x37907c55	1.7224034e-05
37	0x00000000	0.0
38	0x00000000	0.0
39	0x37202e76	9.547561e-06
40	0x00000000	0.0
41	0x37577a6e	1.2843504e-05
42	0x36824637	3.882476e-06
43	0x36cf80f1	6.1840915e-06
44	0x37f432d1	2.911073e-05
45	0x37b3d88c	2.14393e-05
46	0x37ab4ddb	2.0421043e-05
47	0x00000000	0.0
48	0x326154c7	1.3116e-08
49	0x33f5f0bd	1.14524916e-07
50	0x00000000	0.0
51	0x37bb875b	2.2355167e-05
52	0x375a7c32	1.3022729e-05
53	0x00000000	0.0
54	0x00000000	0.0
55	0x00000000	0.0
56	0x374fb3cd	1.2380025e-05
57	0x3789fe8a	1.6450202e-05
58	0x00000000	0.0
59	0x3749e905	1.2034788e-05
60	0x358c7435	1.0464634e-06
61	0x00000000	0.0
62	0x00000000	0.0
63	0x30016deb	4.708613e-10
64	0x00000000	0.0
65	0x00000000	0.0
66	0x00000000	0.0
67	0x367ac124	3.7365326e-06
68	0x37983986	1.8146598e-05
69	0x348c714f	2.6159475e-07
70	0x00000000	0.0
71	0x00000000	0.0
72	0x00000000	0.0
73	0x335bf8cc	5.121619e-08
74	0x00000000	0.0
75	0x00000000	0.0
76	0x364aed48	3.0238461e-06
77	0x3304160f	3.0753707e-08
78	0x36684bc5	3.4614798e-06
79	0x00000000	0.0
80	0x00000000	0.0
81	0x00000000	0.0
82	0x33d88020	1.00815896e-07
83	0x00000000	0.0
84	0x00000000	0.0
85	0x372ca775	1.0290988e-05
86	0x374acee0	1.2088305e-05
87	0x37833126	1.5639303e-05
88	0x32c6d075	2.3145029e-08
89	0x33904224	6.7175534e-08
90	0x00000000	0.0
91	0x3790cf16	1.726257e-05
92	0x3765027d	1.3650043e-05
93	0x376efd64	1.4244903e-05
94	0x379149db	1.7319739e-05
95	0xb60ff428	-2.1450778e-06
96	0x00000000	0.0
97	0x00000000	0.0
98	0x00000000	0.0
99	0x00000000	0.0
100	0x339428a5	6.89918e-08
101	0x00000000	0.0
102	0x37af071c	2.0864936e-05
103	0x00000000	0.0
104	0x37037f05	7.8377825e-06
105	0xb6db89fd	-6.5427726e-06
106	0x00000000	0.0
107	0x3703e97c	7.862571e-06
108	0x363a9dae	2.7807941e-06
109	0x369637d2	4.4768467e-06
110	0x33b43504	8.391547e-08
111	0x00000000	0.0
112	0x330a65df	3.222328e-08
113	0x37412a6f	1.1513576e-05
114	0x373d4547	1.1281408e-05
115	0x00000000	0.0
116	0x3298cfe2	1.7789663e-08
117	0x00000000	0.0
118	0x37cc856d	2.4380826e-05
119	0x2ed8b293	9.854264e-11
120	0x330daf95	3.298881e-08
121	0x36b2d475	5.3295466e-06
122	0xb5d7b261	-1.6070663e-06
123	0x00000000	0.0
124	0x00000000	0.0
125	0x00000000	0.0
126	0x365716e6	3.2050825e-06
127	0x00000000	0.0

exp_avg_sq f4 [128]
0	0x00000000	0.0
1	0x00000000	0.0
2	0x320d7502	8.233885e-09
3	0x2af034dc	4.2669243e-13
4	0x00000000	0.0
5	0x00000000	0.0
6	0x312149c5	2.3470517e-09
7	0x00000000	0.0
8	0x00000000	0.0
9	0x34df50fd	4.1595914e-07
10	0x00000000	0.0
11	0x332613db	3.8667945e-08
12	0x3474e704	2.2808314e-07
13	0x351b2743	5.7799133e-07
14	0x33981fe2	7.083851e-08
15	0x34ff50c1	4.7556208e-07
16	0x00000000	0.0
17	0x2c859a5f	3.797226e-12
18	0x00000000	0.0
19	0x00000000	0.0
20	0x348fe616	2.6803235e-07
21	0x338eafbe	6.6443576e-08
22	0x3530988e	6.5787106e-07
23	0x350729ac	5.035206e-07
24	0x00000000	0.0
25	0x3489947d	2.5626278e-07
26	0x349ae390	2.885031e-07
27	0x34272124	1.5565143e-07
28	0x3401aa1a	1.2075944e-07
29	0x34a3a3dc	3.048034e-07
30	0x33267162	3.8753008e-08
31	0x347ce64f	2.3553115e-07
32	0x00000000	0.0
33	0x324237fc	1.1305016e-08
34	0x00000000	0.0
35	0x338453d0	6.1619744e-08
36	0x34f1dff7	4.5052704e-07
37	0x00000000	0.0
38	0x00000000	0.0
39	0x325d8ff8	1.2896628e-08
40	0x00000000	0.0
41	0x34283bb8	1.5667945e-07
42	0x34a885a3	3.1389672e-07
43	0x3412edad	1.3683776e-07
44	0x34d67760	3.9947463e-07
45	0x34824a32	2.426837e-07
46	0x350baef8	5.203615e-07
47	0x00000000	0.0
48	0x3222abbe	9.468691e-09
49	0x341b493e	1.4462145e-07
50	0x00000000	0.0
51	0x3446200c	1.8451846e-07
52	0x34075385	1.2603239e-07
53	0x00000000	0.0
54	0x00000000	0.0
55	0x00000000	0.0
56	0x33bf0a79	8.8960356e-08
57	0x34fb78c3	4.684026e-07
58	0x00000000	0.0
59	0x346c2ff5	2.199666e-07
60	0x34ad59d5	3.2289122e-07
61	0x00000000	0.0
62	0x00000000	0.0
63	0x2dfafe72	2.8534706e-11
64	0x00000000	0.0
65	0x00000000	0.0
66	0x00000000	0.0
67	0x33477485	4.6439272e-08
68	0x34ba5771	3.4708822e-07
69	0x345b2067	2.0407752e-07
70	0x00000000	0.0
71	0x00000000	0.0
72	0x00000000	0.0
73	0x331a1a6a	3.5879943e-08
74	0x00000000	0.0
75	0x00000000	0.0
76	0x354c06eb	7.600599e-07
77	0x3344231e	4.5666745e-08
78	0x347a1f80	2.3294524e-07
79	0x00000000	0.0
80	0x00000000	0.0
81	0x00000000	0.0
82	0x335efbf0	5.191754e-08
83	0x00000000	0.0
84	0x00000000	0.0
85	0x354598ae	7.3610397e-07
86	0x33550871	4.9600605e-08
87	0x33750abb	5.7053267e-08
88	0x328089ff	1.4963915e-08
89	0x331b7af0	3.620056e-08
90	0x00000000	0.0
91	0x346d2230	2.2084782e-07
92	0x35a46be6	1.2250355e-06
93	0x32f8a01c	2.894381e-08
94	0x3477b335	2.3068863e-07
95	0x34728f5d	2.2590162e-07
96	0x00000000	0.0
97	0x00000000	0.0
98	0x00000000	0.0
99	0x00000000	0.0
100	0x334e0213	4.7965e-08
101	0x00000000	0.0
102	0x34820c51	2.4223348e-07
103	0x00000000	0.0
104	0x33a452d0	7.6519086e-08
105	0x332a45dc	3.9644746e-08
106	0x00000000	0.0
107	0x34ad6985	3.2300537e-07
108	0x3414df3b	1.3864785e-07
109	0x32d29993	2.4517055e-08
110	0x33e407cb	1.0618495e-07
111	0x00000000	0.0
112	0x3281d7ee	1.511577e-08
113	0x34758dcd	2.286899e-07
114	0x32d8175f	2.5156337e-08
115	0x00000000	0.0
116	0x31c3c7fc	5.6979825e-09
117	0x00000000	0.0
118	0x35beed09	1.422509e-06
119	0x2b8e1c3a	1.0097541e-12
120	0x330cc7df	3.2778072e-08
121	0x33f6eadf	1.14979905e-07
122	0x340f6fc0	1.3358567e-07
123	0x00000000	0.0
124	0x00000000	0.0
125	0x00000000	0.0
126	0x33d58540	9.9428235e-08
127	0x00000000	0.0

exp_avg f4 [64, 128]
0	0x00000000	0.0
1	0x00000000	0.0
2	0x00000000	0.0
3	0x00000000	0.0
4	0x00000000	0.0
5	0x00000000	0.0
6	0x00000000	0.0
7	0x00000000	0.0
8	0x00000000	0.0
9	0x00000000	0.0
10	0x00000000	0.0
11	0x00000000	0.0
12	0x00000000	0.0
13	0x00000000	0.0
14	0x00000000	0.0
15	0x00000000	0.0
16	0x00000000	0.0
17	0x00000000	0.0
18	0x00000000	0.0
19	0x00000000	0.0
20	0x00000000	0.0
21	0x00000000	0.0
22	0x00000000	0.0
23	0x00000000	0.0
24	0x00000000	0.0
25	0x00000000	0.0
26	0x00000000	0.0
27	0x00000000	0.0
28	0x00000000	0.0
29	0x00000000	0.0
30	0x00000000	0.0
31	0x00000000	0.0
32	0x00000000	0.0
33	0x00000000	0.0
34	0x00000000	0.0
35	0x00000000	0.0
36	0x00000000	0.0
37	0x00000000	0.0
38	0x00000000	0.0
39	0x00000000	0.0
40	0x00000000	0.0
41	0x00000000	0.0
42	0x00000000	0.0
43	0x00000000	0.0
44	0x00000000	0.0
45	0x00000000	0.0
46	0x00000000	0.0
47	0x00000000	0.0
48	0x00000000	0.0
49	0x00000000	0.0
50	0x00000000	0.0
51	0x00000000	0.0
52	0x00000000	0.0
53	0x00000000	0.0
54	0x00000000	0.0
55	0x00000000	0.0
56	0x00000000	0.0
57	0x00000000	0.0
58	0x00000000	0.0
59	0x00000000	0.0
60	0x00000000	0.0
61	0x00000000	0.0
62	0x00000000	0.0
63	0x00000000	0.0
64	0x00000000	0.0
65	0x00000000	0.0
66	0x00000000	0.0
67	0x00000000	0.0
68	0x00000000	0.0
69	0x00000000	0.0
70	0x00000000	0.0
71	0x00000000	0.0
72	0x00000000	0.0
73	0x00000000	0.0
74	0x00000000	0.0
75	0x00000000	0.0
76	0x00000000	0.0
77	0x00000000	0.0
78	0x00000000	0.0
79	0x00000000	0.0
80	0x00000000	0.0
81	0x00000000	0.0
82	0x00000000	0.0
83	0x00000000	0.0
84	0x00000000	0.0
85	0x00000000	0.0
86	0x00000000	0.0
87	0x00000000	0.0
88	0x00000000	0.0
89	0x00000000	0.0
90	0x00000000	0.0
91	0x00000000	0.0
92	0x00000000	0.0
93	0x00000000	0.0
94	0x00000000	0.0
95	0x00000000	0.0
96	0x00000000	0.0
97	0x00000000	0.0
98	0x00000000	0.0
99	0x00000000	0.0
100	0x00000000	0.0
101	0x00000000	0.0
102	0x00000000	0.0
103	0x00000000	0.0
104	0x00000000	0.0
105	0x00000000	0.0
106	0x00000000	0.0
107	0x00000000	0.0
108	0x00000000	0.0
109	0x00000000	0.0
110	0x00000000	0.0
111	0x00000000	0.0
112	0x00000000	0.0
113	0x00000000	0.0
114	0x00000000	0.0
115	0x00000000	0.0
116	0x00000000	0.0
117	0x00000000	0.0
118	0x00000000	0.0
119	0x00000000	0.0
120	0x00000000	0.0
121	0x00000000	0.0
122	0x00000000	0.0
123	0x00000000	0.0
124	0x00000000	0.0
125	0x00000000	0.0
126	0x00000000	0.0
127	0x00000000	0.0
128	0x00000000	0.0
129	0x00000000	0.0
130	0x00000000	0.0
131	0x00000000	0.0
132	0x00000000	0.0
133	0x00000000	0.0
134	0x00000000	0.0
135	0x00000000	0.0
136	0x00000000	0.0
137	0x330c0451	3.2600216e-08
138	0x00000000	0.0
139	0x2ffaeed2	4.5644427e-10
140	0x3383420b	6.112176e-08
141	0x33904104	6.717349e-08
142	0x3323c50c	3.8130608e-08
143	0x33d97437	1.0125989e-07
144	0x00000000	0.0
145	0x00000000	0.0
146	0x00000000	0.0
147	0x00000000	0.0
148	0x33bb6493	8.7261604e-08
149	0x32632d37	1.322342e-08
150	0x3340d47a	4.489673e-08
151	0x3385a7c7	6.2238136e-08
152	0x00000000	0.0
153	0x30e73d73	1.6824927e-09
154	0x33c3453a	9.092987e-08
155	0x3310b3e1	3.369121e-08
156	0x32629e8e	1.31909825e-08
157	0x33b4906c	8.4081734e-08
158	0x33a578b9	7.7053706e-08
159	0x32c947f4	2.34322e-08
160	0x00000000	0.0
161	0x00000000	0.0
162	0x00000000	0.0
163	0x32d88ea4	2.5210575e-08
164	0x3347065b	4.633908e-08
165	0x00000000	0.0
166	0x00000000	0.0
167	0x2fe351f3	4.1349288e-10
168	0x00000000	0.0
169	0x3388d7cb	6.372246e-08
170	0x32c15707	2.2507733e-08
171	0x3383473a	6.113119e-08
172	0x32587df7	1.2601496e-08
173	0x2d87db8b	1.544522e-11
174	0x32fe2580	2.9586545e-08
175	0x00000000	0.0
176	0x00000000	0.0
177	0x322290fc	9.462607e-09
178	0x00000000	0.0
179	0x32b43ede	2.0983347e-08
180	0x3373b294	5.6740262e-08
181	0x00000000	0.0
182	0x00000000	0.0
183	0x00000000	0.0
184	0x333b1e3c	4.356683e-08
185	0x32b6116d	2.1195513e-08
186	0x00000000	0.0
187	0x3393bb00	6.879236e-08
188	0x32f1cb29	2.8148479e-08
189	0x00000000	0.0
190	0x00000000	0.0
191	0x00000000	0.0
192	0x00000000	0.0
193	0x00000000	0.0
194	0x00000000	0.0
195	0x3280c82a	1.4992185e-08
196	0x3316fe80	3.5156063e-08
197	0x33368111	4.2492562e-08
198	0x00000000	0.0
199	0x00000000	0.0
200	0x00000000	0.0
201	0x323419f5	1.0483281e-08
202	0x00000000	0.0
203	0x00000000	0.0
204	0x331a3993	3.5908283e-08
205	0x3061943c	8.2065177e-10
206	0x32b9eddd	2.1645002e-08
207	0x00000000	0.0
208	0x00000000	0.0
209	0x00000000	0.0
210	0x3303a517	3.0650963e-08
211	0x00000000	0.0
212	0x00000000	0.0
213	0x335e7a0d	5.1799407e-08
214	0x32a474e7	1.9145274e-08
215	0x30d62b6a	1.5582888e-09
216	0x32294c83	9.8544914e-09
217	0x32945610	1.7268604e-08
218	0x00000000	0.0
219	0x33df2d7e	1.0392522e-07
220	0x32f01298	2.7948133e-08
221	0x330039c8	2.9854874e-08
222	0x32947311	1.7281794e-08
223	0x33687cec	5.4130325e-08
224	0x00000000	0.0
225	0x00000000	0.0
226	0x00000000	0.0
227	0x00000000	0.0
228	0x32472c78	1.15934355e-08
229	0x00000000	0.0
230	0x328399ee	1.5320406e-08
231	0x00000000	0.0
232	0x3361637b	5.2477372e-08
233	0x3201023f	7.509299e-09
234	0x00000000	0.0
235	0x32bd3045	2.2024446e-08
236	0x32c1f046	2.257742e-08
237	0x3320e5b1	3.7461806e-08
238	0x31757253	3.5717178e-09
239	0x00000000	0.0
240	0x327359da	1.41648915e-08
241	0x33109f1f	3.3672332e-08
242	0x3298e1d3	1.7797822e-08
243	0x00000000	0.0
244	0x3198dbe0	4.448779e-09
245	0x00000000	0.0
246	0x3274d87c	1.4251892e-08
247	0x00000000	0.0
248	0x2edcc836	1.0040006e-10
249	0x32d73a0b	2.5055689e-08
250	0x32fa840a	2.9163875e-08
251	0x00000000	0.0
252	0x00000000	0.0
253	0x00000000	0.0
254	0x33abe57b	8.00455e-08
255	0x00000000	0.0
